data.pth (torch, 5610 bytes, 6 tensors)

l1.weight f4 [8, 55]
00000000: abf8 d2be 66a2 dc3e b404 293e 192f b83e
00000010: 1cc4 923e 7a58 b0be baa7 1fbe 99b7 0abe
00000020: 6073 353d 1658 38be f742 a0bd 01b9 593e
00000030: 1cd9 43be e52d c03e 8569 fe3e b0da 13be
00000040: 48f5 b6bd 7552 aabe 8ea3 ce3e b2f0 abbe
00000050: 81e1 abbe c344 9abe ddbf 153f 0c68 b83d
00000060: 650a f3bd efd8 103f be58 143f aaea 12bd
00000070: efe7 293f b003 0abc 36f7 0e3f 8a30 c3be
00000080: 4201 b23e 6e64 1e3f 84ac c5be 07a7 be3e
00000090: 0476 f43e 86db 7abe 7133 b53e 0226 90bd
000000a0: 5b8e 2e3e 35e7 c93e f080 473e 968f 123f
000000b0: d487 dfbe ef98 a7be 37ca 01bd c9fa 79bd
000000c0: e5ca bd3e 099b 7dbe 59c1 ac3e e101 03bf
000000d0: 0a3f e43e 7c14 b5bb 4858 ce3d ec00 86be
000000e0: f1dd d23d 8601 3dbc 531f 133f cbdd e8bc
000000f0: b1c8 12bf 852f 08be 57cd fe3c 6f9b fe3e
00000100: fd55 c0be 8609 cabe 9249 5dbd 97ce 89bd
00000110: 7955 f03e 3465 993d 238e a7be a106 cabe
00000120: c531 cabe c4b5 1f3f c4f0 c9be a634 cabe
00000130: 7b69 efbe ffab 6f3f b46b 9a3e 28c8 073d
00000140: c72b 793d f2bb bf3e bd43 08be 52c4 72be
00000150: 8c10 3ebe c0ed 9c3e c82d bfbe b06d dc3e
00000160: c909 3a3f f8ca 06bf 2729 dd3e 1ac0 f6bc
00000170: 0e25 3dbf 424c 063f c72d 48be 13f3 4c3d
00000180: a886 a33d 3e0b fd3e 2d16 9d3d 2619 8abd
00000190: 1d15 18be d1e8 a13e d524 49be 3db0 bb3e
000001a0: 963d 493e 9143 52be f635 083f e4f2 513f
000001b0: 39cf afbe 6c0a 87bd e070 e2be 3967 bebe
000001c0: 800a fe3e 63d1 833e b8fe 993e 0f96 babe
000001d0: eb77 113f c36d cd3e d79c 0cbe 6d6c 03bf
000001e0: d146 70be ac5b ae3e 6c79 a73e bb20 4fbd
000001f0: cdba 8fbd de3b c63e 3df1 02be 4223 613f
00000200: 6f63 323e ed09 593f 9889 4c3f 2090 963e
00000210: 1e77 a73e a18f 7ebd 079a b13e 6147 89be
00000220: 5893 703e 28e8 d1bb d929 193f c05a 883d
00000230: fb5f 8f3d 97bd c5be 94a9 a73e 7310 913e
00000240: 2e8b 34bf e283 513e 30fe 1b3f 05b2 11bf
00000250: 9305 823e f52f 713d a4ab e63e abbd 6e3d
00000260: c02d 753e 8916 0cbe fb06 32bf d2e3 d1be
00000270: a6b8 e93b 4f26 e33e c529 8d3e e76b 04bf
00000280: 73e8 133f 6a3e 97be 1a8a 643e ebb5 09bf
00000290: 1603 be3d edef 40bd 12b6 e4be e3ed 93be
000002a0: 9ff0 10be 6594 acbe 2881 103f 0667 663e
000002b0: b879 723e 16a9 9a3e d980 4a3f c5a1 283f
000002c0: c8d0 3cbe 9bfa 603e 0e4b 813e 91d5 a5be
000002d0: 9783 ce3e f71c 1e3f 12ba cb3e a12c 9fbd
000002e0: 0efb e43e 3d62 6a3e 71d3 5e3e d3d4 c33d
000002f0: c045 043f 38ac 6c3e 7327 d8be d404 08bf
00000300: 1711 013f bca8 f0be 931c c33e 73f2 a9be
00000310: 4be3 193f 0ffd a63e afee 8fbe 2d32 513f
00000320: a940 e0bd ffb7 ecbe 5729 2a3f aaee 55be
00000330: 8796 cf3e 97d1 b8be 33b0 00be 277a 49be
00000340: 5074 10be 9e93 c5be d475 cd3c 3830 843e
00000350: 1063 543e 95ae 123e d503 323f 9019 05bf
00000360: 6c8e 593f f80d 0d3e a3ac 1e3f d863 663e
00000370: 0263 133f 9a3c c13e cfe8 723e 2542 843d
00000380: 835e b23e 0b5b 863e ad85 aa3e 4dc9 033f
00000390: 695f 7f3e e7f0 453f 25ef 10bf d4fe ce3e
000003a0: 57ee d93e 5ef6 e83e 5b96 653d 8d7c 0e3f
000003b0: 6277 0cbf 0911 203f ce7d 5e3e 81e5 de3e
000003c0: 9024 413f 06c6 1e3f 9b83 b03e a644 053e
000003d0: b5c4 b83e 867f d9bd b9c0 0abe b422 eabe
000003e0: 23df a83e 5623 b43e b559 623e 199f 0d3e
000003f0: 7596 41be 2289 92be ea17 d63e 54db c5bc
-0.41205344 0.4309265 0.165057 0.35973433 0.28665245 -0.34442502 -0.15591326 -0.135466
0.044299483 -0.18002352 -0.078252725 0.2126198 -0.1912579 0.37535015 0.4968988 -0.14438891
-0.089335024 -0.33266035 0.40359157 -0.33582073 -0.33570483 -0.30130586 0.58495885 0.0900422
-0.11867217 0.56581014 0.5794791 -0.035868324 0.6636953 -0.008423731 0.55845964 -0.3812297
0.34766585 0.61871994 -0.3860818 0.37236807 0.4774629 -0.24497804 0.3539081 -0.070384994
0.17046492 0.3943421 0.1948278 0.57250345 -0.43658316 -0.32733867 -0.031686988 -0.061030183
0.3706886 -0.24766172 0.33741263 -0.5117474 0.44579345 -0.0055261236 0.10075432 -0.26172578
0.10296238 -0.011536008 0.5746967 -0.028426072 -0.5733748 -0.13299377 0.031103773 0.4972796
-0.37565604 -0.3946039 -0.05402524 -0.06728857 0.4694021 0.07490006 -0.3272563 -0.39458182
-0.39491096 0.6238673 -0.39441502 -0.39493293 -0.46760163 0.9362182 0.30160296 0.03314987
0.060832765 0.37448078 -0.1330709 -0.23707703 -0.18561 0.3065014 -0.37339616 0.43052435
0.7267118 -0.52653456 0.4319546 -0.030120898 -0.73884666 0.5246011 -0.19548713 0.0500365
0.07984668 0.4942264 0.07670245 -0.06743078 -0.14851804 0.31622937 -0.19642957 0.36657897
0.196524 -0.20533587 0.5320734 0.82011247 -0.34337786 -0.06593785 -0.44226742 -0.37188128
0.49617386 0.25745687 0.30077147 -0.3644261 0.56823605 0.40122804 -0.13731705 -0.5133732
-0.23464514 0.34054315 0.32709825 -0.050568324 -0.07018051 0.3871755 -0.12787338 0.87944424
0.17420743 0.8478077 0.7989745 0.29406834 0.32708067 -0.062148694 0.34687826 -0.2681227
0.23493707 -0.006405849 0.5982948 0.06657934 0.07000729 -0.38621208 0.32746565 0.28332862
-0.7052487 0.20460466 0.60934734 -0.5691226 0.25394878 0.058883626 0.45052826 0.05828635
0.23943233 -0.13680471 -0.695419 -0.40994126 0.0071326075 0.44365165 0.2757093 -0.51727146
0.57776564 -0.29539806 0.22318307 -0.5379321 0.09277932 -0.04710381 -0.4467016 -0.2889243
-0.1415429 -0.33706966 0.56447077 0.22500238 0.23679245 0.30207127 0.79102856 0.6587184
-0.18439019 0.21970598 0.25252575 -0.323895 0.4033477 0.61762947 0.39790398 -0.07772184
0.4472279 0.22889037 0.21760346 0.095620774 0.5166893 0.23112571 -0.42217597 -0.5313237
0.504167 -0.47003734 0.38107738 -0.33192787 0.60112447 0.32614943 -0.2811179 0.8171719
-0.10949833 -0.46234128 0.6646933 -0.20891824 0.4054453 -0.36097404 -0.12567215 -0.19675504
-0.1410687 -0.38589185 0.025080599 0.25818038 0.20740914 0.1432441 0.695371 -0.5199213
0.84982944 0.1377486 0.6198217 0.22499025 0.5757295 0.37741548 0.23721622 0.064579286
0.34837732 0.26241335 0.33305112 0.51479036 0.2493874 0.7732071 -0.56614906 0.40428793
0.4256465 0.45500463 0.056051593 0.556588 -0.54869664 0.62525994 0.21727678 0.43534473
0.75446415 0.6202091 0.34475407 0.13014469 0.36087576 -0.10620026 -0.1355008 -0.457296
0.3298274 0.3518321 0.22104533 0.13830222 -0.18905051 -0.2862025 0.4181512 -0.024152435

l1.bias f4 [8]
00000000: 72e4 ab3e 11fa c93e 5d85 323f d425 6c3f
00000010: d83d 163f 13da e13e 9c4a 2b3f b413 1a3f
0.33572727 0.39448598 0.69734746 0.9224522 0.58688116 0.4411169 0.6691072 0.60186315

l2.weight f4 [8, 8]
00000000: 633d 753c d9a0 5fbf 74d1 903f 0d94 953f
00000010: e176 17bf 420b f8be 8a79 193e aa2d c03e
00000020: 5e7f 90bf 2da9 35bf 504e 853e 02c7 743f
00000030: 8bb7 ff3e c947 22be 39d7 79bf e462 b13e
00000040: 2a05 ae3d f0d9 6dbf 7139 883f cb25 babe
00000050: 0890 0c3f 0058 e3bd 3f1b 11bf bb7c 7f3f
00000060: c9d2 7bbf 3099 a2be db57 0e3f 5721 3fbe
00000070: ea2c 7b3f 491a e63e 29bd 74be f6cd ad3f
00000080: 6819 87bf f924 8abe d31c 89bc 9527 e83f
00000090: cd89 723f 15c3 f9be 4fb6 6c3f b96a 0a3f
000000a0: e485 543f 089d a43f 9bf8 833f ab26 fe3e
000000b0: 1a17 aa3e 3aa2 9bbe 97d1 a3bf 4932 493f
000000c0: 2f60 993f e3e8 0d3f 3581 893f bbe1 7abf
000000d0: f183 7e3f 0a85 ce3f d935 c43e ef05 843f
000000e0: 2042 b2be d3b9 60be 9c5a 2ebe c0f2 af3f
000000f0: 27a4 823f 76b1 91bf 3500 90bf 56a5 c5be
0.014968249 -0.8735481 1.131392 1.1685807 -0.5916577 -0.4844609 0.1498777 0.3753484
-1.1288869 -0.70961267 0.2603631 0.9561616 0.4994472 -0.15847696 -0.9759403 0.3464576
0.08497079 -0.9291067 1.064253 -0.3635696 0.54907274 -0.11100769 -0.566822 0.997997
-0.9836851 -0.31757498 0.55602807 -0.18665062 0.9811541 0.4494193 -0.23900284 1.3578479
-1.0554628 -0.26981333 -0.016737377 1.813708 0.9474152 -0.48781648 0.9246568 0.54069096
0.830168 1.2860422 1.0310243 0.49638876 0.3322075 -0.30397207 -1.2798337 0.78592354
1.1982478 0.5543348 1.0742556 -0.9800069 0.99420077 1.613435 0.38322333 1.0314311
-0.34816074 -0.21945886 -0.17026752 1.3745956 1.0206345 -1.1382282 -1.1250063 -0.38602704

l2.bias f4 [8]
00000000: 654e 063f 1d1e ab3d f38b ec3b 6321 993e
00000010: 370e 5a3f 950c a23e 609a 653e 0751 283f
0.5246337 0.08355353 0.0072188317 0.29908285 0.8517794 0.31650224 0.2242217 0.6574864

l3.weight f4 [9, 8]
00000000: 289f 94bf 1478 66bf a28e 78bf c7dc 59bf
00000010: bba7 34bf 68e1 7cbf 11ee 713f 6428 46bf
00000020: 339b 713f 975e 56bf 1548 1cbf c52c b6bf
00000030: 0058 3f3f 770c c6bf 2971 28bf ecb5 3e3e
00000040: 63f9 a63e af50 fe3e 1e30 5d3f 1fe7 de3e
00000050: 0c20 a6be ec47 1abf 591b b1be 49c7 703d
00000060: 392d a4bf 18d0 a5bf 1c41 10be b8b8 96bf
00000070: 0f74 93bf 3c9c 4c3f cbc8 a23e e9fd 92bf
00000080: dd29 37bf 67f4 08c0 b8d7 93bf 10d8 36bf
00000090: bf7d 8a3d 1913 ac3e 385f 89be 605e 0a3f
000000a0: 7d9c 8dbe 0607 4c3f a66d 97bf fa35 aebd
000000b0: 1a8a 0b3e 0fd8 34bf 9097 91bf 1cab 733f
000000c0: 9fa0 53be 5476 e4bf 1af6 823f c528 193f
000000d0: 810a 60bf 781f 0cbe 1acb 973e 5718 7bbf
000000e0: a561 443c 1fbf 083e be01 27c0 4e4b dc3e
000000f0: 272d d9bc 675a 323d 26c9 57bd 6ce4 23be
00000100: 8018 c3bf 6746 c9bf 91da 38bf ec57 533f
00000110: d39c 303f 2644 91bf b06e 923e 5123 4abf
-1.1611071 -0.90026975 -0.9709264 -0.85102504 -0.70568436 -0.9878144 0.94503886 -0.7740538
0.9437744 -0.8373808 -0.6104749 -1.4232413 0.7474365 -1.5472554 -0.6579767 0.18624085
0.32612142 0.49670932 0.86401546 0.43535706 -0.32446325 -0.60265994 -0.34591177 0.058783803
-1.2826301 -1.295413 -0.14087337 -1.1775122 -1.1519793 0.79925895 0.31793818 -1.1483737
-0.71548253 -2.1399171 -1.1550207 -0.71423435 0.067622654 0.3360832 -0.2683046 0.54050255
-0.27658454 0.79698217 -1.1830337 -0.08506389 0.136269 -0.7064218 -1.1374378 0.9518297
-0.20666741 -1.7848611 1.0231354 0.59827834 -0.8751603 -0.1368388 0.29647142 -0.98084015
0.011986171 0.13354157 -2.6094813 0.43026203 -0.026510788 0.043543246 -0.052682064 -0.16005105
-1.5241852 -1.572461 -0.72208506 0.82556033 0.68989295 -1.1348922 0.28600073 -0.7896014

l3.bias f4 [9]
00000000: 3677 0f3f 31a6 053f cd7a afbe 35d3 c7be
00000010: 33a5 bbbe 79d1 abbd 1038 d7bd f49b a23d
00000020: 0534 4cb9
0.56041276 0.5220671 -0.34273377 -0.39028326 -0.36649475 -0.08389563 -0.1050874 0.07939902
-0.00019474335
