data.pth (torch, 5418 bytes, 6 tensors)

l1.weight f4 [8, 54]
00000000: f09d fe3e c60d 44bd c77a c13e 8008 2bbe
00000010: af06 c53e 5285 93be adbe cd3e b49d b53e
00000020: 5635 093f f382 f23e afda 9fbe 3297 17be
00000030: 4b63 4c3e 5c6c 82bd ae48 e9bd 151f a6be
00000040: e0b2 cbbd 1a81 80be 95f0 5dbe b88b d2be
00000050: 1fcf 8d3e 07d5 d2be b3a9 d2be 7231 18bf
00000060: bd9a b93e 9532 d0bb 2381 bdbe bae8 1bbe
00000070: 3bdd 1dbe 9b2e 88be ac75 19be 4fcd 06be
00000080: 113e 873e bc93 0c3f db91 fd3c 6a35 a2be
00000090: e002 ca3d 1e63 213f 1dc3 e43e aadb e63e
000000a0: 384c 9dbe 3336 0abf 0550 e6bd d905 bbbc
000000b0: e04f f33e d03b 92bd e11b 0d3f 7639 ab3e
000000c0: 1c2c 74be 017a aebe 7a95 2abe 86ba 96be
000000d0: b8b7 573e 6c23 8a3e 2859 ca3d 79c8 db3e
000000e0: a873 b2be 24b7 d63d b62b 4b3c 2569 bcbe
000000f0: 3687 88bd 3aa4 aebe 121c acbe a313 31be
00000100: b05f a23d 7575 ab3e 46ce 0a3f 5056 093f
00000110: 6787 bf3e adee b73d aea7 383e 4b71 bebe
00000120: 161f ec3e 123a 9a3e baea 153e 1569 6b3e
00000130: 6d1b 223e f3f5 d23e 2a79 c8ba 6aa1 8bbd
00000140: 69df 1a3f 3c5d 0c3f 5e01 103f 6abc a03e
00000150: 655a b4be 9da6 aa3e 8843 913d ecfc 8dbe
00000160: 8e44 fb3e 1953 593e 8aa0 173f 0644 9dbe
00000170: 309f 94bd 3378 d9bc 8eb1 30be 9214 093f
00000180: 3044 c43e 1b6c de3e 0be7 483d 1000 d93e
00000190: 4645 d6bc 3d84 7b3e 0798 f43e f6d5 263f
000001a0: 778c 023e 2066 ff3e 9902 78be da44 2d3e
000001b0: eadf f23e 46c4 ae3e ee87 c0be 0d6f a8be
000001c0: b4ab 5abe 1a72 073f 3b10 02be 8efb 7ebe
000001d0: 0295 49be cd3f 01be f120 72be 494b 96be
000001e0: 0851 ce3e 623f f2bd fd06 a33e 8679 96be
000001f0: 9437 82be c862 1a3f 94e6 cf3e e22e fbbe
00000200: d52f ee3e 8931 fbbe 78af c9be d236 ebbe
00000210: b912 dabc b387 4fbe 6b47 0d3f 296c 4a3e
00000220: 267a b03e 3654 0cbe 6a32 993e 08a9 0cbd
00000230: 4e58 6f3e a878 eebe ba63 ac3e 9a41 44be
00000240: 95f4 f93e e765 5ebe df5f e1bd 132d fbbd
00000250: 437b 7f3e e601 0f3f 3042 69bd e126 933e
00000260: 0eb2 84be 99a8 273e 6af8 363f d0d1 073f
00000270: 91cd ac3d a2d3 223f b2e6 b3bd b479 883e
00000280: 8e8e 05be 6d89 dd3e bb57 2ebe dcf7 f03e
00000290: cd19 6c3e f498 d23e 5eaa ca3e 26af f3be
000002a0: 6c17 a53e d452 323e aa59 be3e 71f5 983e
000002b0: fa3f db3e a888 873e 1826 213f ac8f e63e
000002c0: 3ddd f43e 2ede 563e db63 903e ef7f b4be
000002d0: d0af 933e a289 b53e a339 f2bd b735 913e
000002e0: e40f 2a3f 8cd4 f23e 1c3d e13e ffc5 9a3e
000002f0: 2b1c 713e 0691 113f 2b25 1a3e 4163 043f
00000300: 09ae 85be 29a5 e13e 00f9 4bbe e2a5 de3e
00000310: 3946 163f f148 a63e 1445 9a3e 04df 013f
00000320: 085e 463e 97a1 f53d f52a 94be ee9f c93e
00000330: 28e4 503e aaa7 093f 2b62 d33e 1b75 1c3f
00000340: 4540 0dbf be29 40be 9051 6d3e a1e8 f73e
00000350: a5e9 aa3e e3e7 b43e d9e2 6f3e 7611 283e
00000360: 20c2 9cbe b739 203f 6f4b d63e 3b8f c2bd
00000370: c113 f6be f39f a93d 948b 773e 861d cd3e
00000380: 3a19 a1bd 3a36 ca3e 385b d4bd 1353 043f
00000390: 5464 cd3e 3ab5 ed3e fc8f 013f a928 463e
000003a0: 4b1c 5dbe 72ef edbc c83e 62be f794 a3be
000003b0: 4a7a 5ebd ffaf a3be 709c a3be 92f5 283e
000003c0: c54d b03e b514 b6bd 9e3a 4fbe ae66 263f
000003d0: a0d5 cbbb fa4c 0e3f 5d0e 643d 6a62 093f
000003e0: aba5 8dbe d3fa 8e3e e5e8 0c3f a889 833e
000003f0: 4498 6dbd 7bc8 ebbd 5dad 303e 97c7 843e
0.49729872 -0.047864698 0.37788984 -0.16702461 0.38481662 -0.28812653 0.40184537 0.3547188
0.5359701 0.4736553 -0.3122153 -0.1480377 0.19959752 -0.06368324 -0.11390816 -0.3244559
-0.09946227 -0.25098497 -0.21673806 -0.41122222 0.27697083 -0.41178152 -0.41145095 -0.5945045
0.36250868 -0.006353686 -0.37012586 -0.15225497 -0.15416424 -0.26598057 -0.14986295 -0.13164257
0.2641454 0.54912925 0.030953338 -0.31681377 0.098638296 0.63041866 0.4468011 0.45089465
-0.30722213 -0.5398895 -0.11245731 -0.022829937 0.47521877 -0.071403146 0.55120665 0.33442277
-0.23844951 -0.34077457 -0.16658583 -0.2943918 0.21066177 0.2698015 0.098802865 0.42926386
-0.34853864 0.1048415 0.012400558 -0.3679897 -0.066664144 -0.3410967 -0.33615166 -0.17292647
0.07928407 0.3348805 0.54221 0.5364733 0.3740799 0.08981071 0.18032715 -0.3719581
0.46117467 0.3012243 0.14640322 0.22989304 0.15830775 0.4120327 -0.0015294899 -0.06817897
0.60497147 0.54829764 0.56252086 0.3139375 -0.35225216 0.3333024 0.07092959 -0.27732027
0.4907574 0.21223105 0.5922934 -0.3071596 -0.07256925 -0.026546573 -0.17255232 0.5354701
0.38333273 0.43441853 0.049048465 0.4238286 -0.026156079 0.24562164 0.47772238 0.6517023
0.12748896 0.49882603 -0.24219741 0.16920796 0.47436458 0.3413412 -0.37603706 -0.32897225
-0.21354562 0.5290848 -0.12701504 -0.24900648 -0.19685748 -0.12621994 -0.23645379 -0.29354313
0.40296197 -0.118284956 0.3184127 -0.2938959 -0.25433028 0.6030698 0.40605605 -0.49059206
0.46520868 -0.4906123 -0.39391685 -0.45940262 -0.026620256 -0.20266609 0.551871 0.19767822
0.34468192 -0.13703999 0.29921275 -0.03434089 0.2337353 -0.46576428 0.33669835 -0.1916565
0.48819414 -0.2171856 -0.11004614 -0.122644566 0.24949364 0.5586227 -0.056947887 0.287406
-0.25917095 0.16372909 0.714728 0.53054523 0.08437646 0.63604176 -0.08784236 0.26655352
-0.13042662 0.4326891 -0.17025654 0.47064102 0.23056717 0.4113232 0.39583105 -0.47594565
0.32244432 0.17414409 0.37177783 0.29874757 0.42822248 0.26471448 0.6294875 0.45031488
0.4782504 0.20983192 0.28201184 -0.35253856 0.28845072 0.35456568 -0.118273996 0.28361294
0.664305 0.47427785 0.43991935 0.30229184 0.23545901 0.56861913 0.15053241 0.5171395
-0.2610934 0.4407132 -0.19919205 0.43485934 0.587009 0.32477525 0.30130827 0.5073092
0.19371808 0.119937114 -0.28939024 0.3937983 0.20399535 0.5377146 0.41285834 0.6111619
-0.5517619 -0.18765923 0.23175645 0.4841967 0.33381382 0.35333166 0.2342638 0.16412911
-0.30616856 0.62588066 0.41854426 -0.09499975 -0.48061946 0.08282461 0.24174339 0.40061587
-0.0786614 0.39494497 -0.10368961 0.5168926 0.40115607 0.46427327 0.5061033 0.19351448
-0.21592824 -0.02904484 -0.22094262 -0.3194959 -0.054315843 -0.31970212 -0.3195529 0.16499928
0.34434333 -0.08890668 -0.20237204 0.65000427 -0.0062205344 0.55586207 0.05567776 0.5366579
-0.27665457 0.2792574 0.5504287 0.2569096 -0.05800654 -0.11512848 0.17253633 0.25933525

l1.bias f4 [8]
00000000: ce97 d23e 4e82 ec3e f332 fb3e 79cd f33e
00000010: 7a9e a33e a431 113f e3ba 803f a2d2 0c3f
0.41131443 0.46193165 0.4906231 0.476177 0.31956846 0.5671637 1.0057033 0.550089

l2.weight f4 [8, 8]
00000000: 8190 523f 9b82 0c3f 2031 973f 3a77 0b3f
00000010: b1a7 4c3f 23ab 503f 2fad 7abf aa25 003f
00000020: 60e6 89bf 68a7 793f f3f2 dfbe 1555 793f
00000030: 3991 9c3e a7d6 483f ef44 0e3e 1ad4 633e
00000040: 6aaa 433e ef3e b4be 0f49 84be 656f 1e3f
00000050: 61d7 723f 2785 5abe 08fc 913f 3ba3 26bf
00000060: 00a3 7a3f c1e6 f9be 542a 29bf f78b 7b3d
00000070: 72c9 02be ad4f 563f 7fa4 113e 37f7 b23f
00000080: 9ac6 9dbc bb24 273f 0135 b9be 6504 d73e
00000090: 4ce5 863f 93da 22bf 4e91 ca3e c900 7bbf
000000a0: d8a0 00bf bc00 073f 7387 463f adac 863c
000000b0: de08 8cbf 88f9 ecbd 08b3 973f 9f3d 523f
000000c0: 0894 02be 5760 b43e 9139 393f 6888 32bf
000000d0: 5c3f 07bf 0165 843e acd2 853f 4687 533f
000000e0: 3389 983e 92c0 44bd 9e1a 94bf 298d 233f
000000f0: da81 bbbe eb0b 063f cbc9 1a3f dcbd a13e
0.82251745 0.5488679 1.1811867 0.544788 0.79943377 0.81511134 -0.9792051 0.5005747
-1.077343 0.97521067 -0.43740043 0.9739545 0.30579546 0.78452533 0.13893484 0.22248879
0.19107977 -0.35204265 -0.2583699 0.61888725 0.9485989 -0.21339856 1.1405039 -0.6509282
0.9790497 -0.48808864 -0.6608021 0.061412778 -0.12772158 0.83715326 0.14222907 1.3981694
-0.01925974 0.6529042 -0.3617325 0.4199554 1.0538726 -0.6361477 0.39563984 -0.98048073
-0.5024543 0.52735496 0.7755043 0.01643976 -1.0940206 -0.11571032 1.1851511 0.82125276
-0.12751782 0.3522975 0.72353464 -0.6973939 -0.52831054 0.2585831 1.0454917 0.82628286
0.29792175 -0.04803521 -1.1570623 0.6388727 -0.36622506 0.52361935 0.6046416 0.31590164

l2.bias f4 [8]
00000000: a939 28bd d917 e13d 72f6 423f b52c c73e
00000010: 95e1 113d 0144 503f 5ca0 413f 4f85 3f3e
-0.041070614 0.10990877 0.76157296 0.38901296 0.035615522 0.81353766 0.75635314 0.18703197

l3.weight f4 [7, 8]
00000000: 67fe 50bf de67 833e cc0d b43e a9c6 c8be
00000010: ca85 7c3f 35cb c5be 3cf2 24bf e797 113e
00000020: f583 0d3f 8641 0e3f 9435 99be b6ff 6abf
00000030: 4808 3d3e ae80 76bf 21d2 92bf 359b 40bf
00000040: 3142 66bf c955 a6bf e0fe 183f 6ac4 9ebf
00000050: 16f8 333e 4e46 2a3f 1510 2b3f 6729 27bf
00000060: 35d2 9cbf 7cd2 4a3f 7a1e 86bd 04ed ee3e
00000070: 3c8c 87bf 33ab a03e 8b9b 48be 4907 4b3f
00000080: b8a7 163f de45 8e3e e8e6 95bf 80e3 9bbf
00000090: 306d 80bf 6992 993e 3ec8 6abe ecaf 0bbf
000000a0: 873f e93e aea4 a5be 977d d9bd 110d 4a3f
000000b0: 37df 4fbf 88bd 6cbf a850 60bf 2eff dc3e
000000c0: 49fc b53e 0cca c5bf 7a53 a4bf 6a04 043f
000000d0: 3dfb 68bf 3c02 073f 50cb af3e 4a36 52bf
-0.8163819 0.25665182 0.35166776 -0.39214066 0.98641646 -0.38631597 -0.6443212 0.14218102
0.55279475 0.5556873 -0.2992369 -0.91796434 0.1846019 -0.962901 -1.1470376 -0.7523683
-0.8994475 -1.299493 0.5976391 -1.2403691 0.17575106 0.66513526 0.66821414 -0.6529755
-1.225165 0.79227424 -0.06548782 0.46665204 -1.0589671 0.31380615 -0.19590585 0.7930799
0.5884967 0.2778768 -1.1711092 -1.2178802 -1.0033321 0.29994515 -0.22927949 -0.5456531
0.4555628 -0.32352203 -0.106196575 0.7892619 -0.81199974 -0.924767 -0.8762307 0.43163437
0.3554404 -1.5452285 -1.2837975 0.51569235 -0.9100836 0.52737784 0.34334803 -0.8211409

l3.bias f4 [7]
00000000: c12b bdbe ebd8 d2bc 8a82 4a3e 3de2 cdbd
00000010: 8426 0c3e 3e6e 35be 15af 09bd
-0.36947444 -0.0257382 0.19776359 -0.10052917 0.13686568 -0.17717835 -0.033614237
