data.pth (torch, 5418 bytes, 6 tensors)

l1.weight f4 [8, 54]
0	0xbe62331e	-0.22089812
1	0x3ee8f92d	0.45502606
2	0xbe75c7c1	-0.24001981
3	0x3eabfe0e	0.33592266
4	0x3db0bc1d	0.0862963
5	0x3f61a0ae	0.881358
6	0xbce3d042	-0.027809266
7	0xbe9e5978	-0.30927634
8	0xbe8e34df	-0.27774712
9	0xbe5cb558	-0.21553552
10	0x3e754880	0.23953438
11	0xbd8fc0b7	-0.07019179
12	0x3de192a7	0.110143
13	0x3db21bcf	0.0869671
14	0x3eb42e43	0.35191545
15	0xbe7f35ce	-0.24922869
16	0x3ec738c9	0.3891051
17	0x3f589468	0.8460145
18	0x3eae652a	0.34061557
19	0x3ee5954b	0.44840464
20	0xbe8dd9d7	-0.2770526
21	0x3ec6fe3a	0.38865834
22	0x3e87037c	0.26369846
23	0x3e5529bf	0.20816706
24	0xbd2cde6c	-0.042204306
25	0x3e8c828d	0.27443352
26	0x3eead2ac	0.45863855
27	0x3f11a75f	0.56896013
28	0x3e04a078	0.12951839
29	0x3f1a6932	0.60316765
30	0x3f05585a	0.5208794
31	0x3dc1b7d4	0.094588906
32	0xbe552d51	-0.20818068
33	0xbec08bb8	-0.37606597
34	0x3ede9f08	0.43480706
35	0xbd4298d9	-0.047509048
36	0x3e4fcb8d	0.20292492
37	0xbe8d55e7	-0.276046
38	0xbe3bbfb0	-0.18334842
39	0xbdd41e41	-0.10357333
40	0x3ebb25f1	0.36552384
41	0x3ecb45e3	0.39701757
42	0xbe0de3d5	-0.13856442
43	0x3f024d8f	0.50899595
44	0xbcff2be6	-0.031148862
45	0x3f27f820	0.65612984
46	0xbf278cbc	-0.6544912
47	0xbe205967	-0.15659104
48	0x3eb867fa	0.36016828
49	0x3ee2af54	0.4427439
50	0xbe90886b	-0.2822908
51	0x3e752e2f	0.23943399
52	0xbdbd01b2	-0.09228839
53	0x3cb9529f	0.022622405
54	0x3ed4aebb	0.4153956
55	0x3ee5d8b4	0.44891894
56	0xbdc5ff8f	-0.096678846
57	0x3e7d9eb9	0.24767579
58	0x3e2eeaac	0.17081708
59	0xbf20551a	-0.62629855
60	0x3cf401d3	0.029786026
61	0xbe078148	-0.1323291
62	0xbecf209d	-0.4045457
63	0xbda758e5	-0.08171252
64	0x3eaa29f9	0.33235148
65	0xbe06af43	-0.13152795
66	0x3cea83ae	0.028627243
67	0xbe9ce5ca	-0.30644065
68	0x3ec93fa2	0.3930636
69	0x3cd11b6f	0.025525777
70	0x3f02b0f3	0.51051253
71	0xbf2052ee	-0.6262654
72	0xbe0ee040	-0.13952732
73	0x3f1f7a6e	0.6229619
74	0x3ea00850	0.31256342
75	0x3f1c7b64	0.6112578
76	0x3f1f78c4	0.6229365
77	0x3f093f4b	0.536122
78	0x3d276100	0.04086399
79	0x3e55a3a7	0.2086321
80	0xbe339fd9	-0.17541446
81	0x3ec4a6bb	0.38408455
82	0xbdd490f9	-0.10379214
83	0x3eff416d	0.49854603
84	0xbeb89741	-0.36052898
85	0xbec357c4	-0.38152897
86	0x3d0ff59f	0.035146352
87	0xbe688a78	-0.22709072
88	0x3ed9c2c0	0.42531395
89	0x3db7f759	0.08982725
90	0xbea28c61	-0.31747726
91	0xbe65ce2e	-0.22441933
92	0xbe6101a8	-0.21973288
93	0xbcda29ec	-0.026631318
94	0xbee2963d	-0.44255248
95	0xbebb91cc	-0.36634672
96	0xbd9ec826	-0.07753019
97	0x3ebdcdf0	0.3707118
98	0xbe1c7703	-0.15279774
99	0x3eafe304	0.34352887
100	0x3f2cf8d8	0.67567205
101	0x3ed9d992	0.42548805
102	0x3e53ca8b	0.20682733
103	0xbe342aae	-0.17594406
104	0x3db87e50	0.09008467
105	0xbe1b29b8	-0.15152633
106	0xbe1f1364	-0.1553474
107	0x3e3fc2e4	0.18726689
108	0xbe3fc654	-0.18728
109	0xbd1f1325	-0.038836617
110	0x3d5fe314	0.054659918
111	0x3ebc8a68	0.36824346
112	0x3e982220	0.29713535
113	0xbeffefbf	-0.499876
114	0x3da3a762	0.0799091
115	0xbe001705	-0.12508781
116	0xbd1759e3	-0.036950957
117	0x3cdc7394	0.02691058
118	0x3e898f77	0.26867267
119	0x3f3ac460	0.72955894
120	0xbc79b43e	-0.015240727
121	0x3f2b75e5	0.6697677
122	0xbdb2d1db	-0.08731433
123	0x3e88a3f2	0.2668758
124	0x3ea813e4	0.32827675
125	0xbf06456d	-0.52449685
126	0xbd2f9e79	-0.04287574
127	0x3ee80bf8	0.4532163
128	0xbe2da494	-0.16957313
129	0x3efdaf7e	0.49547952
130	0x3f1094f3	0.5647728
131	0x3f28e7b2	0.6597854
132	0x3e8daea4	0.27672303
133	0x3f019f60	0.5063381
134	0xbe39e7d6	-0.18154845
135	0xbe41c51e	-0.1892285
136	0xbe97310a	-0.295296
137	0x3c1ff0c7	0.009761996
138	0xbe9091a9	-0.2823613
139	0x3f10e67d	0.566017
140	0x3d95f7e4	0.07322672
141	0xbda1e506	-0.07905011
142	0xbe03af2b	-0.1285979
143	0x3e873762	0.2640944
144	0xbe4a4d50	-0.19756055
145	0xbe90ea01	-0.2830353
146	0xbe1d3286	-0.15351304
147	0x3cc753cd	0.024331952
148	0xbdf1ae87	-0.118008666
149	0xbe284a6d	-0.16434641
150	0x3ec71159	0.38880423
151	0xbe18a68e	-0.14907286
152	0x3efa1282	0.48842245
153	0xbe2c0ae4	-0.1680103
154	0xbf064526	-0.5244926
155	0xbdd88937	-0.10573047
156	0x3e2187c0	0.15774441
157	0xbe9c3863	-0.3051177
158	0x3e9c3246	0.30507106
159	0xbe7af429	-0.24507202
160	0xbd650780	-0.055915356
161	0xbd22f33c	-0.039782748
162	0x3f1ba990	0.60805607
163	0x3e9f1849	0.31073216
164	0x3effeb0c	0.49984014
165	0xbdbcda03	-0.0922127
166	0x3d44d64c	0.048055932
167	0x3f136cf5	0.5758813
168	0x3f1a450d	0.60261613
169	0x3edb2cb4	0.42807543
170	0x3f14933c	0.5803716
171	0x3ec5391c	0.38520133
172	0xbed589d9	-0.41706732
173	0x3ef3d506	0.4762346
174	0x3ed4bfa3	0.41552457
175	0x3f0bcf74	0.54613423
176	0x3e73ce3f	0.23809145
177	0x3ec313f7	0.3810117
178	0xbe4f0ab5	-0.20218928
179	0x3ef86a7a	0.48518735
180	0xbe904305	-0.28176132
181	0xbee4517f	-0.44593427
182	0x3f0a78cf	0.5409059
183	0xbecc1176	-0.39857072
184	0xbec2b100	-0.38025665
185	0xbe07485e	-0.132112
186	0x3f014b6e	0.5050572
187	0xbe82f48e	-0.25577205
188	0xbe93f415	-0.28897157
189	0x3da2564c	0.07926616
190	0xbde20ad3	-0.11037221
191	0x3cf1c5f6	0.02951334
192	0x3e74b9b7	0.2389897
193	0x3f101664	0.56284165
194	0x3e7a7429	0.24458374
195	0x3f1ed157	0.6203818
196	0x3de18269	0.11011202
197	0x3ecfa5c5	0.4055616
198	0xbdca520a	-0.09878929
199	0x3efbee5a	0.49205285
200	0x3ed17d06	0.40915698
201	0x3ed17480	0.40909195
202	0x3e3b26b0	0.18276477
203	0xbefe8ffb	-0.49719223
204	0x3ee5dd4f	0.44895408
205	0x3da69bae	0.08135162
206	0x3f49d1e1	0.78835875
207	0x3e522164	0.2052055
208	0x3f5126f6	0.81700075
209	0x3ea6ee73	0.32603797
210	0xbe258cf8	-0.16167057
211	0xbefb5362	-0.49087054
212	0x3ec06861	0.37579635
213	0xbecdc1b9	-0.4018686
214	0x3ed6fabf	0.4198818
215	0x3f085d67	0.5326752
216	0xbe78c14d	-0.24292488
217	0x3ec66ee6	0.38756484
218	0xbeaac8f0	-0.33356428
219	0x3e956f26	0.29186362
220	0x3ec05c3c	0.3757037
221	0x3cba4f3e	0.022742864
222	0xbdd31dfd	-0.10308454
223	0xbbf70ad6	-0.0075391335
224	0xbec6e454	-0.38846076
225	0xbe3f8593	-0.18703298
226	0x3e90f52c	0.2831205
227	0xbe91afdf	-0.28454491
228	0x3ecb8895	0.3975264
229	0xbead2549	-0.3381751
230	0x3efe8994	0.4971434
231	0xbdf23039	-0.11825604
232	0x3ebf5204	0.3736726
233	0xbd5dfdbf	-0.05419707
234	0x3ed1369f	0.40861985
235	0x3efbf84c	0.49212873
236	0xbe5dad95	-0.21648248
237	0x3efb4a42	0.49080092
238	0x3f18adc8	0.5964017
239	0x3eb2df29	0.34935883
240	0xbe81e526	-0.2537014
241	0x3ea95559	0.33072928
242	0x3f34052b	0.70320386
243	0x3f1d8749	0.61534554
244	0x3f0263f7	0.50933784
245	0x3f17986d	0.5921696
246	0x3ca08609	0.019595163
247	0xbea456f1	-0.3209758
248	0xbdf515c6	-0.119670436
249	0xbe401b8d	-0.1876051
250	0x3f0b8c98	0.54511404
251	0xbe8091d1	-0.2511125
252	0x3f03dd90	0.5150995
253	0xbeaf2754	-0.34209692
254	0x3d5ec302	0.054385193
255	0xbda273e3	-0.0793226

l1.bias f4 [8]
0	0x3f27887c	0.65442634
1	0x3f205868	0.626349
2	0x3f064506	0.5244907
3	0x3f1fa1fe	0.62356555
4	0x3f332002	0.69970715
5	0x3f299422	0.6624166
6	0x3ef79c51	0.48361447
7	0x3f44583c	0.76697135

l2.weight f4 [8, 8]
0	0xbf419fd3	-0.756345
1	0x3f77059b	0.9649293
2	0xbda14bdf	-0.078757994
3	0x3f8de6f9	1.1086112
4	0xbc40daa7	-0.011770881
5	0xbeadcb65	-0.3394424
6	0xbf1b4228	-0.6064782
7	0x3f8d9a3f	1.1062697
8	0x3f829f94	1.0204949
9	0x3f81afae	1.0131738
10	0x3f210d71	0.62911135
11	0xbf5e75d7	-0.8689856
12	0x3fa4cf86	1.2875831
13	0xbe2672bb	-0.16254704
14	0x3f054e16	0.52072275
15	0x3d8d8ad0	0.06911242
16	0x3ec8e073	0.3923374
17	0x3f6e10bd	0.9299429
18	0x3f9bb46e	1.2164438
19	0xbe201a43	-0.15635018
20	0xbcb2a8e4	-0.021809049
21	0xbe1dc6f3	-0.15407924
22	0x3e8f16b3	0.27947006
23	0xbec1bfb6	-0.37841576
24	0xbd2bcfe1	-0.041946296
25	0x3f953c42	1.1659014
26	0x3e8cd12c	0.27503335
27	0x3dd6082a	0.10450776
28	0x3f3f6e52	0.7477771
29	0xbf1397b5	-0.5765336
30	0xbed8c916	-0.42340916
31	0x3f1df46a	0.6170107
32	0x3ebaeb17	0.36507484
33	0xbf045251	-0.51688105
34	0x3f6326ab	0.8873088
35	0x3f85b052	1.0444434
36	0xbf3dce35	-0.7414277
37	0x3f991856	1.1960552
38	0x3f0fb75a	0.5613915
39	0xbf3d3eef	-0.73924154
40	0x3f19ff47	0.6015515
41	0x3eb31749	0.34978703
42	0x3f1139df	0.5672893
43	0xbefe2e56	-0.49644727
44	0x3e498d2a	0.19682756
45	0x3f4dbaa3	0.8036291
46	0x3f4a03c2	0.78911984
47	0xbefcef51	-0.49401334
48	0x3f6d4d02	0.9269563
49	0xbf6e1ccc	-0.9301269
50	0xbf90e989	-1.1321269
51	0x3d6f8b84	0.05848266
52	0x3f8b67cc	1.0891051
53	0x3f86dd64	1.0536313
54	0x3e9cb597	0.30607292
55	0x3f44acbf	0.7682609
56	0x3f1875aa	0.5955454
57	0x3f4313ad	0.762019
58	0xbf3dcf22	-0.74144185
59	0x3edf149d	0.43570414
60	0x3d5e300b	0.054245036
61	0xbf92282f	-1.1418513
62	0xbf887cd4	-1.0663095
63	0x3f234aa0	0.63785744

l2.bias f4 [8]
0	0x3f38455f	0.7198085
1	0xbe31e9ad	-0.17374296
2	0x3e875d79	0.264385
3	0x3f26da66	0.65177
4	0x3eab3cb8	0.33444762
5	0x3edc34f4	0.4300915
6	0xbd62d60a	-0.055379905
7	0xbe5175c9	-0.20455088

l3.weight f4 [7, 8]
0	0xbf1ac599	-0.6045776
1	0xbd38e923	-0.04514421
2	0x3eac196d	0.33613148
3	0xbf9e7c2b	-1.2381643
4	0x3f2b7b2f	0.6698484
5	0x3eb39198	0.35072017
6	0xbfc83bb8	-1.5643225
7	0xbed8f795	-0.4237639
8	0xbdc76f32	-0.09738006
9	0x3ec49020	0.3839121
10	0xbf1a4927	-0.6026787
11	0x3d47d38e	0.04878574
12	0xbfa08105	-1.2539374
13	0xbf206610	-0.62655735
14	0xbe9ea733	-0.30986938
15	0x3edf1aab	0.43575034
16	0xbf94a81e	-1.1613805
17	0xbe01d61d	-0.12679334
18	0xbf396835	-0.7242463
19	0xbf756a66	-0.95865476
20	0x3eb45a30	0.35225058
21	0x3ee4ed2d	0.447122
22	0x3ea328b6	0.31866997
23	0xbf74ef0f	-0.95677274
24	0xbf28e415	-0.65973026
25	0x3f2fc773	0.6866371
26	0x3f0518de	0.5199107
27	0x3e5c5b70	0.21519256
28	0xbed93ce0	-0.42429256
29	0x3f0dd1b5	0.5539811
30	0xbf916ee9	-1.1361972
31	0xbfb2524b	-1.3931364
32	0xbed54190	-0.41651583
33	0x3ed73902	0.4203568
34	0xbfc56ae9	-1.5423251
35	0xbee9aba8	-0.45638776
36	0xbfc1dd5d	-1.514568
37	0xbb741c84	-0.0037248442
38	0x3f2d470b	0.6768653
39	0xbfaf3690	-1.3688526
40	0x3f1a6973	0.6031715
41	0xbf8a4f59	-1.0805465
42	0xbfcb6aa1	-1.5891916
43	0x3e0bdc27	0.136582
44	0x3e1d6c0a	0.15373245
45	0xbf1ff12a	-0.6247736
46	0xbc491cf6	-0.012274971
47	0xbfbe58cf	-1.4870852
48	0x3f4afdb6	0.7929338
49	0xbf92c412	-1.1466086
50	0xbf2ce1f6	-0.6753229
51	0x3e760e7a	0.2402896
52	0xbfc3d558	-1.5299482
53	0xbf5be68d	-0.8589867
54	0xbf93fff4	-1.1562486
55	0x3f1be766	0.6089996

l3.bias f4 [7]
0	0xbcfdee56	-0.030997436
1	0xbf18f2be	-0.59745395
2	0x3e6836ab	0.22677104
3	0xbd4388c5	-0.047737855
4	0xbeae92b9	-0.34096316
5	0xbce200d2	-0.027588282
6	0x3e839a3d	0.25703612
